data.pth (torch, 9642 bytes, 6 tensors)

l1.weight f4 [8, 91]
1.4487293 -1.6460705 0.8132113 1.6461896 0.059306815 0.4736339 -0.48460382 0.008391954
0.555207 -0.0037553334 0.35457736 1.4769853 0.1657922 -0.5373509 -0.07070699 0.06308455
0.29792568 -0.42994 0.0860803 0.8366023 0.1580019 -1.6885316 0.18157189 -0.16485867
0.36442804 0.3376161 0.12216085 0.9236683 -0.17640336 0.35141227 -0.25755352 0.24089968
0.27290276 1.2698303 1.0521704 -0.11141189 -0.27259624 -0.6687645 0.102547035 0.74104786
-0.693911 0.3637211 1.1472557 -0.05745408 0.6476388 1.0494707 -0.098791346 0.33799827
-0.36587375 -0.12400979 0.258697 0.70470315 0.19965121 0.103886195 -0.2079726 1.2003651
1.3913437 -0.9580744 -0.7219705 -0.17583245 -1.3454654 0.30679098 -0.2501492 0.33303875
0.19045144 -0.24991441 -0.63460565 0.2895643 0.35719356 0.3874563 0.03688547 0.05394945
-0.08435269 -1.0589284 1.0286827 1.386309 0.7145929 -0.27654433 0.08630296 -0.41251642
-0.18983449 0.12916155 0.058614098 -0.5838844 -0.14034423 -0.15218452 0.89221376 0.12107644
-0.14027093 0.10877781 0.25004226 0.89273494 -1.1676632 0.94950086 1.8621947 0.16022281
-0.23524751 -0.3244315 -0.21634771 0.29040167 -0.02985124 0.7495423 1.2499566 0.008168955
-0.6141124 -0.08851615 0.13969183 -0.035482537 -0.43609887 0.022464043 0.6936289 -0.24939506
0.8727799 0.29368505 -0.0029210397 0.37469956 -0.4518955 0.25990072 0.68338597 0.8352579
-0.70250684 -0.22429514 0.58195496 0.66887456 0.63629645 0.7551239 -0.0745523 -0.24757923
-0.56019264 -0.3620587 -0.001544531 0.6899067 0.15669091 0.59398615 0.21199885 0.38765246
0.50403535 -0.0833007 0.41845256 -0.6301337 1.0889419 0.08445371 0.113312565 -0.45556998
0.02917752 0.7064999 0.7242696 0.87118185 -0.76069367 -0.69811976 0.08368112 -1.1613027
0.051906608 -0.043592606 -0.46493194 0.6983222 -0.24714185 -0.5819519 -0.30446014 0.6228466
-1.2991745 0.14621927 0.040322725 0.7805003 -0.9628831 0.2385007 1.3989501 0.37931958
-0.45653072 -0.39908057 -0.7611269 0.7911082 0.07954391 0.30197686 -0.63604337 -0.16071191
0.81141436 0.85260844 0.21999903 1.0155644 0.07292474 -0.11570668 0.8120392 0.9552836
0.23062325 -0.64014816 -0.07181038 1.208337 -0.17376478 -0.9235468 -0.80340266 -0.16944963
-0.4940756 1.2094437 -0.038663913 -0.014803401 0.1371634 0.07637076 0.022906078 -0.11517537
-0.2628153 0.051418032 0.34627438 -1.1371962 0.7536738 -0.055724386 -0.1765037 0.74960744
0.03700502 -1.1281747 -0.39402908 0.43158123 -0.3431769 0.6074303 0.28196537 0.9418181
0.96602976 -0.10226561 0.15591227 0.24006909 0.69281775 0.48524457 -0.65572923 0.17339194
0.8291105 0.32391933 -0.45056945 0.65985626 0.16490072 -0.039032493 0.47497645 -0.37922478
-0.006285345 -0.15589868 0.5586821 0.08097856 -0.39392948 -0.012821804 0.12204287 1.0191773
0.40915132 -0.28449175 0.90701324 0.12821466 -0.64530754 0.7405448 0.86923444 0.41493085
0.4223265 0.7963828 0.6969702 1.9554639 0.10314959 0.06573437 0.45875397 0.15289629
00000000: f66f b93f 70b2 d2bf 9e2e 503f 57b6 d23f
00000010: b4eb 723d 2480 f23e fe1d f8be 687e 093c
00000020: 0c22 0e3f 0a1c 76bb 2a8b b53e db0d bd3f
00000030: 6ec5 293e d48f 09bf d4ce 90bd 7932 813d
00000040: b789 983e 1821 dcbe de4a b03d 912b 563f
00000050: 40cb 213e ce21 d8bf fbed 393e b6d0 28be
00000060: 5096 ba3e 04dc ac3e 782f fa3d 8775 6c3f
00000070: 15a3 34be 4fec b33e 0ede 83be 68ae 763e
00000080: e9b9 8b3e cd89 a23f 85ad 863f eb2b e4bd
00000090: bc91 8bbe 2634 2bbf 2e04 d23d 50b5 3d3f
000000a0: 27a4 31bf a739 ba3e 46d9 923f f854 6bbd
000000b0: a8cb 253f 0e55 863f 1e53 cabd 1c0e ad3e
000000c0: ce53 bbbe d8f8 fdbd ef73 843e 6d67 343f
000000d0: 5e71 4c3e 49c2 d43d c5f6 54be 90a5 993f
000000e0: 8d17 b23f 5d44 75bf 0fd3 38bf 6c0d 34be
000000f0: 3638 acbf b513 9d3e 8e13 80be 0e84 aa3e
00000100: b405 433e 90e9 7fbe 8475 22bf c641 943e
00000110: 13e2 b63e ac60 c63e 3815 173d 19fa 5c3d
00000120: 1ac1 acbd f78a 87bf e0ab 833f 9372 b13f
00000130: 8fef 363f 3897 8dbe 9bbf b03d 5a35 d3be
00000140: f963 42be ed42 043e 5615 703d 7379 15bf
00000150: 66b6 0fbe 42d6 1bbe 1f68 643f edf6 f73d
00000160: 2fa3 0fbe e7c6 de3d 8a05 803e 478a 643f
00000170: fd75 95bf 7d12 733f 655c ee3f 7311 243e
00000180: b9e4 70be e31b a6be 418a 5dbe 87af 943e
00000190: 968a f4bc 01e2 3f3f 94fe 9f3f 15d7 053c
000001a0: 7836 1dbf f547 b5bd 600b 0f3e 2356 11bd
000001b0: 5a48 dfbe 8306 b83c aa91 313f 6b61 7fbe
000001c0: 816e 5f3f e35d 963e ea6e 3fbb 9fd8 bf3e
000001d0: d95e e7be b511 853e 62f2 2e3f 76d3 553f
000001e0: 7dd7 33bf a0ad 65be 00fb 143f 5d3b 2b3f
000001f0: 53e4 223f cd4f 413f e0ae 98bd 6985 7dbe
00000200: c968 0fbf c25f b9be dc71 caba ba9d 303f
00000210: 9573 203e 7a0f 183f 3a16 593e 627a c63e
00000220: 7608 013f 8f99 aabd 6a3f d63e 7150 21bf
00000230: 7362 8b3f 11f6 ac3d 6b10 e83d 7840 e9be
00000240: b205 ef3c 2ddd 343f bc69 393f c605 5f3f
00000250: d2bc 42bf fab7 32bf 0261 ab3d 91a5 94bf
00000260: 069c 543d 298e 32bd 8f0b eebe 3ec5 323f
00000270: c112 7dbe cdfa 14bf 33e2 9bbe e072 1f3f
00000280: 5a4b a6bf 81ba 153e 7129 253d dece 473f
00000290: 827f 76bf 8739 743e cc10 b33f 2d36 c23e
000002a0: 65be e9be 4a54 ccbe 36d9 42bf 1186 4a3f
000002b0: ebe7 a23d b69c 9a3e bdd3 22bf aa91 24be
000002c0: dab8 4f3f 8c44 5a3f 6d47 613e 04fe 813f
000002d0: 9159 953d a0f7 ecbd cde1 4f3f 778d 743f
000002e0: 8028 6c3e c0e0 23bf 5211 93bd c9aa 9a3f
000002f0: 65ef 31be 906d 6cbf ccab 4dbf 3484 2dbe
00000300: 7af7 fcbe 0dcf 9a3f 0d5e 1ebd f789 72bc
00000310: 9074 0c3e 4668 9c3d 87a5 bb3c 10e1 ebbd
00000320: ba8f 86be b79b 523d e04a b13e a58f 91bf
00000330: c4f0 403f 413f 64bd 63bd 34be 46e6 3f3f
00000340: 9392 173d 0768 90bf 2ebe c9be 37f8 dc3e
00000350: e2b4 afbe 8d80 1b3f c45d 903e fe1a 713f
00000360: ba4d 773f a270 d1bd 77a7 1f3e acd4 753e
00000370: 815c 313f fa71 f83e dfdd 27bf a88d 313e
00000380: 9640 543f c1d8 a53e 0ab1 e6be 57ec 283f
00000390: bcdb 283e 89e0 1fbd 1d30 f33e c029 c2be
000003a0: 4cf5 cdbb e7a3 1fbe ca05 0f3f 16d8 a53d
000003b0: 20b1 c9be 8b12 52bc 9df1 f93d 6774 823f
000003c0: 487c d13e e7a8 91be 0532 683f b44a 033e
000003d0: e032 25bf 5894 3d3f 2686 5e3f d171 d43e
000003e0: 2e3b d83e bedf 4b3f a46c 323f a44c fa3f
000003f0: 1840 d33d be9f 863d cde1 ea3e d890 1c3e

l1.bias f4 [8]
0.34030002 0.4670706 0.7725702 0.97563237 1.276405 0.638127 1.1224304 1.1171843
00000000: ce3b ae3e e123 ef3e 29c7 453f 0bc3 793f
00000010: 3d61 a33f 4b5c 233f cdab 8f3f e5ff 8e3f

l2.weight f4 [8, 8]
-0.16276845 -0.8658661 1.5888294 0.63793063 -1.4430326 1.0849794 0.20957857 3.056992
0.22173803 -0.16919394 -0.34252936 0.14019045 -0.12935917 -0.12840168 -0.16359155 -0.12199588
-1.6220936 0.03006328 -0.00092216546 -1.0069125 2.2412546 -0.3771782 2.2499733 1.6335634
2.032065 1.8310329 1.102806 -2.5995336 -0.8462048 -0.64223385 1.8963745 0.2859814
1.8207477 0.7047857 1.291845 -0.6139589 -0.7098884 2.0146308 -1.166102 0.042132366
1.0791655 1.9929447 -1.0424013 3.7787235 0.6405809 -1.3541567 1.1399188 0.053247552
-0.1108935 -0.57776886 1.350381 -1.1763641 2.790481 1.7973667 0.19882664 -1.2057265
0.004108188 0.4451904 1.6184858 1.2181098 0.81540114 2.3604522 -0.96595496 -0.8952448
00000000: c6ac 26be 67a9 5dbf c35e cb3f 6c4f 233f
00000010: 4bb5 b8bf 9be0 8a3f c49b 563e c2a5 4340
00000020: 4b0f 633e 2d41 2dbe 0260 afbe 168e 0f3e
00000030: bb76 04be bb7b 03be 8b84 27be fad8 f9bd
00000040: c3a0 cfbf 4547 f63c 7abd 71ba 82e2 80bf
00000050: b770 0f40 801d c1be 90ff 0f40 9b18 d13f
00000060: 5a0d 0240 495f ea3f bf28 8d3f c25e 26c0
00000070: e1a0 58bf 7069 24bf 66bc f23f 276c 923e
00000080: 430e e93f d66c 343f 2d5b a53f 692c 1dbf
00000090: 3fbb 35bf b6ef 0040 d542 95bf fd92 2c3d
000000a0: 1822 8a3f d018 ff3f 686d 85bf 9bd6 7140
000000b0: 1cfd 233f 0255 adbf dce8 913f 1b1a 5a3d
000000c0: 221c e3bd a9e8 13bf 49d9 ac3f 1993 96bf
000000d0: 3e97 3240 1d10 e63f 3699 4b3e 3f55 9abf
000000e0: fb9d 863b ffef e33e 8b2a cf3f 06eb 9b3f
000000f0: 21be 503f a611 1740 d348 77bf c32e 65bf

l2.bias f4 [8]
0.700122 -0.28477457 1.1173273 -0.46804085 -0.2214386 0.99072814 1.0407122 -0.38546994
00000000: 323b 333f f9cd 91be 9504 8f3f 0da3 efbe
00000010: cdc0 62be 5ca0 7d3f 0f36 853f 515c c5be

l3.weight f4 [45, 8]
0.9018487 -0.12014221 0.7578709 -3.0696266 -1.0319207 -0.5638494 -0.20476034 -0.79635537
0.078225166 0.123613335 0.5340288 -1.4096799 -1.9125427 0.59411 -0.09818462 -2.9704022
0.943982 0.25263378 0.5790729 -0.094107985 -2.245149 -0.38399825 -1.7225134 -2.3695946
0.37596208 -0.34421536 0.553312 -1.3415589 -0.6257214 -2.333722 0.69437927 -0.21205293
0.25119954 0.04488218 0.7502114 -0.2739643 -1.7525212 -0.6655925 0.30542433 -2.364931
-1.6702272 0.16197523 -0.23980086 -1.0261716 -0.2882476 0.33985117 0.10666382 0.2991495
-1.6919105 0.026782174 0.7640629 -2.8580816 -2.0352924 0.012959128 0.71361876 -0.24675173
0.692635 -0.12933931 -1.3367746 -1.8441447 0.429603 -0.013259405 -1.357899 0.47377777
-2.6588705 -0.097185425 0.69850653 -2.3328295 -1.2960526 1.0722325 -0.36129144 -1.3867285
0.837843 -0.3387967 0.26431027 -2.0262866 -1.1079443 0.45829302 -2.2938235 -1.0425826
-2.5553703 0.33795878 0.8413505 -0.6225026 -1.339894 0.4085128 0.80178595 -2.8285758
0.07184399 0.141399 -1.6048801 -1.3340838 0.71409965 -1.3736305 0.43783987 0.6281075
0.10413375 0.2516157 0.16956767 -0.87240344 -2.688424 -0.33004063 0.5181504 0.10424861
0.6874669 -0.3091915 0.023069525 -0.20767456 -0.28016865 -0.07906994 -1.4056354 -0.44028094
-0.71782947 -0.22161344 0.31177622 0.2521801 -2.0866597 0.45851448 -0.43182158 -0.96803755
-0.6560427 0.04249925 0.2538338 -2.1691506 -0.36816382 -0.0771737 0.07456841 0.5953821
0.011529395 -0.31556198 -0.1366895 -0.6306538 -0.7692896 0.22676943 0.1283419 -0.2252792
0.31202742 -0.22470729 -1.3109361 -0.009419595 -0.023518788 0.4864784 -2.1937437 -0.6468419
-1.3187824 -0.09947102 -0.108114615 0.011067486 -0.2203925 0.7243433 -1.6545182 -0.7282346
-1.3491012 -0.08313501 0.02382931 -0.4257564 0.2055818 -1.1428026 0.72022974 0.09262849
-0.015730789 0.1600012 -1.6111491 0.084306926 0.39016902 -0.46022436 -0.019422127 0.1550048
-2.587372 0.013863213 -0.6450481 0.20720178 0.2598916 -0.11581928 0.40566432 -0.3035643
-0.8983053 0.22047088 0.6765348 0.25987458 -2.403656 -0.36387703 -0.0007443152 -0.53110665
0.015930265 0.15851721 0.46572757 0.43325284 -0.5119357 -0.35292253 -0.8635455 -1.0597632
-2.9933116 0.049211085 0.44688454 0.6100011 -1.9358444 0.23745343 -0.2124791 -1.9128349
-1.0436616 -0.03914565 0.29088295 -0.31731737 -0.7856636 -0.46399865 0.5022445 0.047482874
0.2839279 0.29956508 -1.1995252 -0.45344302 -0.039760035 0.18287538 -0.32289803 0.13532054
-0.08222704 -0.016134424 -0.31082034 0.23056135 -0.20207159 -0.070179425 -0.53965235 -0.15382408
-2.4509645 0.18054013 0.05381709 0.5454513 -0.8745363 0.031882137 0.35477453 -0.85612893
-0.063837625 -0.28191578 -0.40551612 -0.27849883 0.26691037 -0.9022405 0.16386726 0.30318874
0.42901665 -0.15349078 -2.4298308 0.16429351 0.6241107 -0.28604698 -1.0831038 -0.110519
-0.89360857 0.23277104 -1.5133362 0.4644171 0.070286565 0.20873094 -0.4252646 -0.1590819
00000000: 8edf 663f 1e0d f6bd d403 423f c374 44c0
00000010: fa15 84bf 6f58 10bf b2ac 51be f2dd 4bbf
00000020: 8434 a03d fd28 fd3d 1db6 083f 6470 b4bf
00000030: 33ce f4bf 9817 183f 0515 c9bd 121b 3ec0
00000040: cea8 713f 3759 813e 1f3e 143f b0bb c0bd
00000050: 85b0 0fc0 6b9b c4be 527b dcbf 70a7 17c0
00000060: 1a7e c03e ff3c b0be dba5 0d3f 34b8 abbf
00000070: 472f 20bf b45b 15c0 d7c2 313f 6724 59be
00000080: 3a9d 803e 60d6 373d db0d 403f 0c45 8cbe
00000090: 9d52 e0bf 4564 2abf 9460 9c3e 085b 17c0
000000a0: 01ca d5bf d6dc 253e 5b8e 75be 9759 83bf
000000b0: 3095 93be f900 ae3e 9072 da3d 202a 993e
000000c0: 8690 d8bf 4a66 db3c a099 433f cfea 36c0
000000d0: 3b42 02c0 8652 543c b8af 363f 7cac 7cbe
000000e0: 8750 313f 8671 04be 6e1b abbf ef0c ecbf
000000f0: edf4 db3e fa3d 59bc a2cf adbf 0093 f23e
00000100: ef2a 2ac0 2709 c7bd 53d1 323f 144d 15c0
00000110: 0de5 a5bf ea3e 893f 31fb b8be 5280 b1bf
00000120: e17c 563f c376 adbe ad53 873e aeae 01c0
00000130: 1ed1 8dbf 62a5 ea3e 01ce 12c0 5973 85bf
00000140: 308b 23c0 ef08 ad3e bf62 573f 555c 1fbf
00000150: a681 abbf 9728 d13e d841 4d3f 6307 35c0
00000160: f122 933d e6ca 103e b66c cdbf 42c3 aabf
00000170: 3ccf 363f 20d3 afbf 8c2c e03e a7cb 203f
00000180: 1344 d53d c6d3 803e 26a3 2d3e d555 5fbf
00000190: 240f 2cc0 16fb a8be 81a5 043f 4c80 d53d
000001a0: d5fd 2f3f 594e 9ebe 4dfc bc3c a4a8 54be
000001b0: 4472 8fbe 6cef a1bd dceb b3bf 816c e1be
000001c0: acc3 37bf a2ee 62be 22a1 9f3e c01d 813e
000001d0: d58b 05c0 69c2 ea3e b817 ddbe 4fd1 77bf
000001e0: 6af2 27bf b213 2e3d 81f6 813e 5dd3 0ac0
000001f0: f87f bcbe 3f0d 9ebd 53b7 983d f66a 183f
00000200: cae5 3c3c 5791 a1be 55f8 0bbe 8772 21bf
00000210: 2af0 44bf 3f36 683e 0f6c 033e 97af 66be
00000220: 0fc2 9f3e ab19 66be c1cc a7bf a554 1abc
00000230: 79aa c0bc b213 f93e 4c66 0cc0 6e97 25bf
00000240: ddcd a8bf 76b7 cbbd 326b ddbd 6754 353c
00000250: 92ae 61be 906e 393f 41c7 d3bf 956d 3abf
00000260: 59af acbf b042 aabd af35 c33c befc d9be
00000270: 0984 523e 5b47 92bf fa60 383f 01b4 bd3d
00000280: dbdd 80bc 5bd7 233e 223a cebf 1ca9 ac3d
00000290: 3cc4 c73e 87a2 ebbe 271b 9fbc 94b9 1e3e
000002a0: 8197 25c0 8822 633c df21 25bf b42c 543e
000002b0: 8310 853e a932 edbd 3cb3 cf3e c86c 9bbe
000002c0: 56f7 65bf 1ec3 613e 6231 2d3f 480e 853e
000002d0: 80d5 19c0 174e babe 261e 43ba 9bf6 07bf
000002e0: 3080 823c 5652 223e d873 ee3e 51d3 dd3e
000002f0: 380e 03bf 43b2 b4be 5111 5dbf 52a6 87bf
00000300: 6b92 3fc0 9091 493d 0dce e43e 0829 1c3f
00000310: c0c9 f7bf fe26 733e 1f94 59be c6d7 f4bf
00000320: b496 85bf 3057 20bd 9cee 943e 6c77 a2be
00000330: 4021 49bf 3b91 edbe 1893 003f 677d 423d
00000340: ff5e 913e 9860 993e 0b8a 99bf af29 e8be
00000350: 6bdb 22bd af43 3b3e e452 a5be 7891 0a3e
00000360: a666 a8bd 572c 84bc d823 9fbe 4618 6c3e
00000370: dbeb 4ebe 3bba 8fbd a826 0abf 0f84 1dbe
00000380: 9adc 1cc0 83df 383e 4f6f 5c3d b2a2 0b3f
00000390: 9ce1 5fbf d896 023d 02a5 b53e 442b 5bbf
000003a0: 4dbd 82bd 4457 90be cf9f cfbe 6697 8ebe
000003b0: 7aa8 883e 3cf9 66bf d2cc 273e 8e3b 9b3e
000003c0: 12a8 db3e b02c 1dbe 5982 1bc0 8f3c 283e
000003d0: b8c5 1f3f c074 92be 25a3 8abf c957 e2bd
000003e0: 88c3 64bf 885b 6e3e 00b5 c1bf 14c8 ed3e
000003f0: 67f2 8f3d 90bd 553e 48bc d9be 5ee6 22be

l3.bias f4 [45]
0.49315783 0.25789756 0.19951539 0.2454985 0.0037529017 -0.058956277 0.25069585 0.38830465
0.08836542 0.34615344 0.47737694 -0.3065527 0.33784488 -0.058852468 0.2983897 0.0035083108
0.38800806 -0.3019183 0.06194373 -0.15485616 -0.13778155 -0.3728349 -0.050225005 -0.5486309
-0.34659192 -0.47942117 -0.147049 -0.56866205 -0.0024582343 -0.19157651 -0.31379604 0.00013494873
-0.19242649 -0.20811127 -0.0584019 0.015526285 0.028146973 -0.33173975 0.12622802 0.24006414
0.7112676 0.37343997 0.26625842 0.22890247 -0.14005081
00000000: 2f7f fc3e 260b 843e c34d 4c3e f563 7b3e
00000010: 3ef3 753b 237c 71bd 355b 803e decf c63e
00000020: eef8 b43d 063b b13e c06a f43e 7af4 9cbe
00000030: 01fa ac3e 490f 71bd 89c6 983e b0eb 653b
00000040: fea8 c63e 0995 9abe b5b8 7d3d 9d92 1ebe
00000050: 9b16 0dbe 37e4 bebe bcb8 4dbd 1373 0cbf
00000060: 7f74 b1be b176 f5be 0394 16be d693 11bf
00000070: 541a 21bb a22c 44be e0a9 a0be 0681 0d39
00000080: 730b 45be 1f1b 55be d536 6fbd f661 7e3c
00000090: 7b94 e63c cbd9 a9be eb41 013e 60d3 753e
000000a0: a215 363f 8633 bf3e 0653 883e 6965 6a3e
000000b0: 7b69 0fbe
